src/cnn_sent_classification/results/CNNModel.pth (torch_old, 860129 bytes, 12 tensors)

embedding.weight f4 [4, 300]
00000000: 4981 fa3e 35d8 7a3f 00b1 633f 33c8 613f
00000010: bd5a 153f fcb9 cd3e 375f 3c3f 5b36 653f
00000020: a766 223f d531 9f3e 524e b93d a3e9 a23e
00000030: 707a 0b3d 411f 5c3f 87d1 6e3d 9f51 763f
00000040: 49cd 433e ff80 893d 2c66 c03e d8bc 553f
00000050: 285c 0c3d 77e0 dc3e e862 723e 9642 6c3f
00000060: 70fa 183f cd42 c13c f7a7 3c3f d3e0 1d3f
00000070: a6ed ca3e 5c8a 103d aec0 e23c 1102 643f
00000080: 3fc0 d13e 2fcc 783f ffab 4d3f 165c ce3d
00000090: ebe4 cd3e f228 6c3e f5e6 6c3f 6069 423f
000000a0: cb88 2b3f 54b2 5f3e f982 173e 40f2 333f
000000b0: fa1c 233f b13c 163f f927 db3c 3026 4b3f
000000c0: d442 4f3f cde2 323f 7ca2 f33e c38f 523f
000000d0: 4876 4b3f 016e 4b3f b210 713f b020 3b3f
000000e0: 9358 a33e 530f 883e f2cb 403f 158b 893e
000000f0: cad9 863e 880d 273f 0fe7 0f3f e259 c13d
00000100: 57a2 bd3e 9999 f13d 94ca 0e3f c194 453f
00000110: 9be4 c93e 7bfd 8e3e 7da6 2b3f 6121 413f
00000120: 964f 413f 7d94 453f 356e 313f 5457 723e
00000130: 9b0c 6f3f aad8 833e fee5 273f 680e 543f
00000140: 8c6f 563f 8f17 573f 7f55 c13b bc9d 023f
00000150: 2ac5 193f f7d5 c63d 4823 613e a194 0b3e
00000160: 52b8 d03d a9c1 143f 3f85 353f 0d9c 5b3f
00000170: bf35 7f3f e891 c03e ef39 cd3e 777f 743e
00000180: 342b 5d3d a2f6 603e bfd7 4d3e eaa6 733f
00000190: b248 823d 5f8a 3b3e b255 a03e ee74 253f
000001a0: 2198 ce3e 992f 4d3f 1701 5f3e 38fd 033f
000001b0: 17fb 653f a6a0 293e 2b7e d13b 3b1e d63e
000001c0: 4d1b b93e 56d0 2f3f a852 753f 302b 5f3f
000001d0: da0e 583e 0670 223f 7875 123f b4eb 733f
000001e0: 7282 113f 8584 6c3f 28f1 373f 504b 8a3d
000001f0: 3491 5c3e 8e09 c33d 90e8 de3e c2b6 b73d
00000200: 3f04 533f 0890 363e a155 583f 1347 c53e
00000210: 7b82 483e a5a6 7a3e daab 6d3e 2438 583e
00000220: 6630 623f 67ef 613e b8e0 853e db24 613f
00000230: 9b95 4a3f 7243 3a3e 3ad4 883e d64f 903d
00000240: cc4d 903d 0380 413f 9609 f23e d774 c43e
00000250: 141f 433f b7f8 563f e460 503f e371 f33e
00000260: 2418 323f f863 4b3d 6d45 973e ee90 283f
00000270: 5714 e73c 0a5d a93e 5690 fc3b 41de 303d
00000280: 2f84 623e cf2a 5e3f 34a3 db3e 904f 113f
00000290: 8675 223f a17b 4c3f c1db 7b3f 996a 9c3e
000002a0: 63f2 d93e d5f1 733f a04a b03d c3dc 763e
000002b0: 581a a73e 67c4 0c3e 17c3 013f 8632 e13d
000002c0: 1cdc 013f e4dd 7f3f a625 f33d aeca 293e
000002d0: ccd6 223f c539 ac3c d7b5 5c3f db36 ee3e
000002e0: 98f6 723f 82f4 9d3d ba46 013f 6bb2 ff3e
000002f0: 6386 4d3f f0ff 393f 66d2 003f 436a 783f
00000300: ce69 263f 76fa f33e e0b3 163f 00b7 2c3f
00000310: 199f ec3e 939c c43e 03e5 233e cc09 f93e
00000320: 4151 aa3e 174a 793e e11b 473d 362d 8a3d
00000330: 653c 3d3f 04ce e13e 462c a83e 4988 f23e
00000340: 5fcc 163e d473 283f 410a c83e fb90 163e
00000350: 9921 953e 22a0 183f 6ea8 b83d a903 e43e
00000360: e6f9 6c3e 637e 883d f14f 323f 8d1b db3d
00000370: a4c7 3f3f 0004 113e 6c3a 6a3f 6cd7 5a3e
00000380: 4d04 963d f7c9 573d 90b0 d03e 8bd9 303f
00000390: 010f 7d3f 15a8 0e3f c4fd 323f 88ec 043f
000003a0: 10b0 7a3f 7cf2 cf3d 7b35 393f 8666 a33e
000003b0: 2b47 203e 37ec 8d3e 553c 483f e2e6 9539
000003c0: 42ad 343f 7da6 473f 41f7 ce3e 4528 083f
000003d0: f953 7c3f dbdf 173e 9d44 7b3f 9171 413e
000003e0: 9fdd 073f 6d48 a03e e22d 023f da51 683f
000003f0: 62b5 463f f394 f23e 2984 a33e 961f 133f
0.48926762 0.97986156 0.88941956 0.88196105 0.5834158 0.40180957 0.73582786 0.89536065
0.63437885 0.31092706 0.090481415 0.31818876 0.034052312 0.8598519 0.05830529 0.96218294
0.19121279 0.06714057 0.3757795 0.8349128 0.034267575 0.43140003 0.23670542 0.922891
0.5975714 0.023591423 0.73693794 0.6167118 0.39634436 0.0352882 0.027679767 0.89065653
0.40966985 0.9718656 0.8034057 0.10076158 0.40213713 0.23062494 0.9253991 0.7594204
0.67005605 0.2184537 0.14796056 0.7029152 0.6371609 0.5868636 0.026752459 0.79355145
0.80961347 0.6987732 0.47584903 0.8225061 0.7947736 0.7946473 0.941661 0.7309675
0.31903514 0.2657419 0.75311196 0.26863924 0.26338035 0.6525502 0.5621194 0.09440972
0.37037918 0.117968746 0.5577786 0.77180105 0.39432225 0.27927765 0.67050916 0.7544156
0.75512064 0.771797 0.6930879 0.23666126 0.9337861 0.2575124 0.65585315 0.8283448
0.8376396 0.8402032 0.0059000845 0.51021934 0.60066473 0.09708779 0.21986115 0.13630916
0.10191406 0.58108 0.7090644 0.8578499 0.99691385 0.37611318 0.40083262 0.23876749
0.05399628 0.21969083 0.20101832 0.95176566 0.06361522 0.18314503 0.3131538 0.64631546
0.4035044 0.80150753 0.2177776 0.51558256 0.8983626 0.16565189 0.006393214 0.4181994
0.3615364 0.6867727 0.9582925 0.87175274 0.21099415 0.63452184 0.57210493 0.9528153
0.5683967 0.9238971 0.7185235 0.06752646 0.21539766 0.09523307 0.43536806 0.08970405
0.82428354 0.17828381 0.8450566 0.38530788 0.19581024 0.24477632 0.23210087 0.21115166
0.883551 0.22063981 0.2614801 0.8794686 0.7913453 0.18189791 0.26724416 0.070464775
0.070460886 0.75585955 0.47272938 0.38370392 0.76219296 0.8397326 0.81397843 0.47547826
0.69568086 0.049655885 0.29545155 0.65846145 0.028207941 0.33078796 0.007707636 0.043180708
0.22120737 0.8678407 0.42897952 0.5676203 0.63460577 0.7987614 0.9838219 0.30550078
0.4256774 0.9529088 0.086079836 0.24107651 0.32637286 0.13746797 0.5068831 0.10995965
0.50726485 0.99947953 0.11872415 0.16581222 0.63609004 0.02102364 0.86214966 0.46526226
0.9490752 0.07712652 0.50498545 0.4994081 0.8028318 0.72656155 0.5032104 0.9703714
0.65005195 0.47652024 0.5886822 0.67466736 0.46215132 0.38400707 0.1600533 0.48640287
0.33265117 0.2434467 0.04861057 0.067469046 0.7392028 0.4410249 0.32846278 0.47369602
0.14726399 0.6580174 0.39070323 0.14703743 0.29127195 0.59619343 0.090165004 0.44534042
0.23142204 0.06664731 0.6965323 0.10698614 0.74914 0.14161682 0.91495395 0.2137124
0.07325039 0.052682843 0.40759706 0.69081944 0.9885102 0.5572522 0.69918466 0.5192342
0.979249 0.10153672 0.7234723 0.31914157 0.15652148 0.2771928 0.7821706 0.00028591516
0.7057687 0.77988416 0.40423015 0.53186446 0.9856563 0.14831488 0.9815157 0.18890978
0.5307254 0.31305256 0.5085126 0.90749896 0.7762052 0.47379264 0.31936768 0.5747007

ns_embedding.weight f4 [4, 300]
00000000: 6d64 f53e 2349 783f 2840 663f 6757 643f
00000010: 31cc 123f ae9b c83e 77d1 393f 62be 673f
00000020: 77d7 1f3f cb13 9a3e 39c2 cd3d 71cb 9d3e
00000030: 3e6e 343d 91ad 5e3f 48df 453d 78c2 733f
00000040: ff90 393e 68f0 9d3d 8548 bb3e 454b 583f
00000050: bcea c63c a7fe e13e fc26 683e 9ab6 693f
00000060: f688 1b3f 43bc 5e3c d118 3a3f 9c51 1b3f
00000070: 32cf c53e 8278 393d 96de 903c d590 663f
00000080: 76a6 cc3e 433d 763f cb1c 4b3f 9bd5 e23d
00000090: 9302 d33e 9a65 763e 7174 6f3f 71f8 443f
000000a0: 00fa 283f 04ef 693e c74b 0d3e 6963 313f
000000b0: 28ac 253f 8dad 133f 2184 163d bdb3 4d3f
000000c0: 0bb4 4c3f cf71 353f 0784 ee3e b400 503f
000000d0: 9d04 4e3f 18df 483f 8b82 6e3f 7391 383f
000000e0: e676 a83e 21f1 823e ff3c 3e3f 82a9 8e3e
000000f0: 24f8 8b3e 729c 293f 0458 0d3f 93d1 d53d
00000100: fd83 b83e 7421 dd3d 3d3c 0c3f ab05 433f
00000110: b301 cf3e 9109 943e 3a32 2e3f 4992 3e3f
00000120: 7cc0 3e3f 6605 433f efdf 2e3f 921a 683e
00000130: c77d 6c3f e0f6 883e 9957 253f 317f 513f
00000140: 53e0 533f ae88 543f ca3b 86bb 380f 003f
00000150: e453 1c3f 065d b23d 2a5f 6b3e 4bd1 153e
00000160: a941 bc3d b332 123f 24f6 323f 3a10 593f
00000170: 51e2 803f 36b0 c53e 0b1d c83e ac42 6a3e
00000180: 8003 833d e2b9 563e 2c9c 433e 6835 763f
00000190: eac1 963d 11c7 453e c837 9b3e 2de6 223f
000001a0: f579 c93e d2be 4f3f 61c4 543e d56f 013f
000001b0: 1c8a 683f 6dda 333e 90f0 6bbb bd3c db3e
000001c0: 63fe b33e 7e41 2d3f 5be0 773f fa9b 5c3f
000001d0: 7fd2 4d3e 75e7 1f3f 3be6 0f3f 237a 763f
000001e0: 9a11 143f 5ef5 693f 0362 353f d1a4 6b3d
000001f0: 78cc 663e 8e83 d73d a306 e43e 5c49 a33d
00000200: 6093 553f cacc 403e 77c6 553f 3964 ca3e
00000210: c145 3e3e 606b 703e 64e6 773e 5369 623e
00000220: 22a2 5f3f 5eb4 573e 65c2 803e 78b3 633f
00000230: 3e24 4d3f 2907 303e dbf1 8d3e ceb5 a43d
00000240: caa9 773d 080f 443f 0828 f73e 9257 bf3e
00000250: d38f 403f e687 593f 16ee 523f a055 ee3e
00000260: f588 2f3f 081a 723d 3f2e 923e 7602 263f
00000270: a430 953c 057b ae3e 25d5 8e3c 93ee 073d
00000280: 28c1 6c3e 989b 5b3f 59c1 e03e 9cde 133f
00000290: 51e6 1f3f 68fc 493f c84c 793f ca87 a13e
000002a0: b10f df3e e662 713f d5bf c43d f98a 803e
000002b0: 2938 ac3e 52f9 163e 3c52 043f 76a5 f53d
000002c0: be6a 043f 2236 813f 79b3 de3d 5704 343e
000002d0: 9547 203f 5ca3 fc3c 0d45 5f3f d033 f33e
000002e0: 6067 703f c76b b23d a36f fd3e 1995 fa3e
000002f0: 61f7 4a3f b270 373f c060 033f 29db 753f
00000300: 21f8 283f 4017 f93e e124 143f 2046 2f3f
00000310: 3bbd f13e e3ba c93e f321 2e3e 92ed f33e
00000320: 5533 a53e cbc0 813e 6d28 1e3d 0ea7 9e3d
00000330: 7dad 3a3f 86eb e63e 780e a33e 79a6 f73e
00000340: 3a09 213e d0e4 253f 6028 cd3e c0ca 203e
00000350: 953f 9a3e 6712 163f 0f32 a43d 3ce6 de3e
00000360: a5bd 623e 7ff7 9c3d 56de 343f 7112 ef3d
00000370: ce55 423f be3f 1b3e 4bab 673f bf9a 503e
00000380: 9a7d aa3d 225b 803d 2092 cb3e af68 333f
00000390: d57f 7a3f 6f19 0c3f d18c 353f c07b 073f
000003a0: dc20 783f f96a e43d 5ba6 363f 7c80 a83e
000003b0: 7b5c 2a3e 360a 933e 90ad 453f 50f4 1ebc
000003c0: 5d39 373f 5d17 453f e8da c93e 5499 053f
000003d0: d9c4 793f 08ea 203e cab5 783f c634 373e
000003e0: eb6b 0a3f e729 9b3e 7d3d ff3e 8cdf 6a3f
000003f0: 2944 493f edb2 f73e 3e66 9e3e 7290 103f
0.4792818 0.969866 0.89941645 0.89195865 0.5734282 0.39181274 0.72585243 0.90524876
0.6243815 0.30093226 0.10046811 0.30819276 0.044050448 0.8698359 0.04830864 0.9521861
0.18121718 0.077118695 0.36578766 0.8448985 0.024281852 0.44139597 0.22671121 0.9129425
0.6075586 0.01359469 0.72694117 0.606714 0.3863464 0.04528094 0.017684262 0.90064746
0.3997075 0.9618723 0.7934081 0.11075898 0.412129 0.24062195 0.9353705 0.7694159
0.6600647 0.22845083 0.13798438 0.6929231 0.64715815 0.5768669 0.0367471 0.80352384
0.79962224 0.70876783 0.46585104 0.8125107 0.8047579 0.78465414 0.9316794 0.7209694
0.32903212 0.25574592 0.7431182 0.278637 0.27337754 0.6625434 0.55212426 0.10440364
0.360382 0.10797396 0.54779416 0.76180524 0.40430984 0.2891355 0.6804539 0.74441963
0.7451246 0.7618011 0.68310446 0.22666386 0.9237942 0.2675085 0.6458679 0.81834704
0.82764167 0.83021057 -0.004096483 0.5002322 0.61065507 0.08709149 0.22985521 0.1463062
0.09192211 0.5710861 0.6990683 0.84790385 1.0069066 0.38611 0.39084658 0.22876996
0.06397152 0.20969346 0.19102544 0.9617524 0.07361205 0.19314219 0.30315995 0.6363247
0.39350858 0.81150544 0.20778038 0.5056127 0.9083574 0.17563792 -0.003600154 0.42819777
0.3515502 0.6767806 0.96826714 0.861755 0.20099829 0.6246255 0.5621068 0.96280116
0.5783936 0.91390026 0.7085268 0.057530228 0.22538936 0.10523139 0.44536313 0.079729766
0.83428 0.18828121 0.8350596 0.3952959 0.18581297 0.2347846 0.24208981 0.2211049
0.8735677 0.21064898 0.2514831 0.8894572 0.80133426 0.17190231 0.27723584 0.08042489
0.060464658 0.76585436 0.4827273 0.37371498 0.7521946 0.8497299 0.8239454 0.46549702
0.68568355 0.059106857 0.28550908 0.64847505 0.01821167 0.3407823 0.01743562 0.033186506
0.23120558 0.8578429 0.43897513 0.5776155 0.6246081 0.78900766 0.97382784 0.3154891
0.4356666 0.9429153 0.096069016 0.25106028 0.33636597 0.14743546 0.5168798 0.1199445
0.51725376 1.0094645 0.108740754 0.1757978 0.62609226 0.030839615 0.8721474 0.47500467
0.9390774 0.08711963 0.49499235 0.48941877 0.7928372 0.71656334 0.51319504 0.96037537
0.66003615 0.4865055 0.5786877 0.6846638 0.47214684 0.39400396 0.17005138 0.4764219
0.32265726 0.25342402 0.03861277 0.07746707 0.7292097 0.45101565 0.31846976 0.48369196
0.15726176 0.64802265 0.40069866 0.15702343 0.30126634 0.5862183 0.080173604 0.4353503
0.22142656 0.07664394 0.7065176 0.11673439 0.7591218 0.15161034 0.9049575 0.20371531
0.08324738 0.06267382 0.39759922 0.7008161 0.97851306 0.5472631 0.70917994 0.529232
0.9692514 0.11153216 0.7134759 0.32910526 0.16636841 0.28718728 0.7721796 -0.009701803
0.71571904 0.76988775 0.39424825 0.52187085 0.9756599 0.15714276 0.9715239 0.17891225
0.5407092 0.30305406 0.498516 0.91747355 0.7861963 0.48378697 0.3093738 0.56470406

convs.0.weight f4 [32, 2, 1, 300]
00000000: f595 87bb 0b5a 31bd b151 40bd b341 d53c
00000010: c68f f73b 6b72 dd3c 03f7 173b 6970 ea3b
00000020: c902 00bd 20bb 0ebd 4eff ba3c 2864 c93c
00000030: cd27 2c3c 1277 bd3b b184 853c 1775 08bd
00000040: 6d21 2bbc 4afb 53bc 961e c1bb e346 8d3c
00000050: e517 43bb b864 c63b 01e4 29bd 5a19 75bc
00000060: 9b2c 2a3c cc43 9e3a 746b 1ebd ce68 12bd
00000070: 9f19 d7bc 33f6 42bd df39 b5bc ab16 5dbc
00000080: 3540 8d3c 342d 47bc c6de 7d3c 68d1 21bd
00000090: 8404 d9bc 5d61 24bd faa4 41bd 0e29 383b
000000a0: 91e9 2cbd 3a05 d7bc becd 513c 709a a8bc
000000b0: bb55 1d3b 988f e43c eaad 973c a0b2 01ba
000000c0: 7521 ecbc fbad a53c 8828 da3c 7754 91ba
000000d0: ce28 a9bc b589 e9bc 8437 1ebd cb68 38bc
000000e0: cdff 943c a20c c13c cdaf 11bd 1318 503c
000000f0: eed2 de3c 34fe 0c3b 3c19 53bc 29c3 3dbd
00000100: a7e9 373c fc23 463c 78a9 4cbc f3b7 43bd
00000110: f332 c23c 9ee5 1bbd cb4d b0bc 9cfc 7b3c
00000120: ecd0 1ebd f42a 64bb 3a42 92bc ac3d 8abc
00000130: a9ba 313b e8d6 b33c 63ec fcbc 2fc9 fb3c
00000140: 556c 9d3c 1ecf f13c c471 f73c 003e b6bb
00000150: fc71 ed3c ad20 87bc 9aa2 673c ccad 41bd
00000160: 4440 8abc 9e23 cb3c df58 ea3c b065 10bd
00000170: c0e2 18bd bc96 41bd c127 f33c 84ad 89bc
00000180: 6382 df3c 93eb c03c b5bd 58bc 94ed 5a3c
00000190: ccc4 f3bc 3ad8 cebc f9b9 6b3c 7f29 2cb9
000001a0: 8c4c 03bd 6595 ef3c b17e a4bc 84de f5bc
000001b0: ded1 ac3c 2b64 503c f651 67bc 729c c63c
000001c0: 2f7c a53c cc09 8b3c 0a91 5ebc 47e6 a03c
000001d0: 3506 50bd 76fb c7bc 8d80 873c 0298 973c
000001e0: 224d 36bd 69a1 703c b302 16bd 87e4 b73c
000001f0: 3c7b b4bb 6759 45bd 78ef 2dbd c436 2dbc
00000200: 3dbd 52bc 8184 95bc 1892 67bc 6466 5e3c
00000210: 7e94 223c 9996 f8bc fe8a 3cbd 0adb 393b
00000220: 5a32 d2bc 690a 00bd ef87 8b3c 576d 85bc
00000230: 7c8c db3c d8a5 afbc 74fc ec3c 7af7 2dbd
00000240: d87c de3c 3f27 e2bc 83de 72ba ea35 853a
00000250: 439d c0bc 8890 d3bc 5604 2fbd 0f60 16bd
00000260: 65d8 a1bc 04b1 0ebd 7a35 da3c eb5d c3bb
00000270: 3899 d1bc 0d94 f1bc bb96 663b 41fb bfbc
00000280: ede2 193b 9fa9 20bd 84b3 aabb 57ee 9d39
00000290: ab6f 503c 2b11 2f3c b0ac d9bc 1e49 473c
000002a0: cd49 02bd 8bb8 94bc 9b24 493c a452 f4bc
000002b0: 554c c0bc 0cd4 1cbc a500 d03c fbdf 843c
000002c0: 2053 f13c 80e2 7bba 3a28 d33c 7125 e9bc
000002d0: b3d3 39bd b8e9 34bb 1893 213c 1b02 d2bc
000002e0: 0a8e 10bd cc74 a73c 4d30 fa3c 9fff f03c
000002f0: 1e22 21bd ca56 bf38 844c f13c 2ad4 e5bb
00000300: 3253 853b 0ebc 163c 63a4 dd3c bfa0 5abc
00000310: 7adf 4f3a 882f 3bbb b8cd a1bc a80f 32bd
00000320: da25 0cbc 110b 883b 09d0 babc aaef 5ebb
00000330: 6f28 9fbb f013 81bc 51eb 39bd 0369 31bd
00000340: cb3c 31bd ec3a d23b ddec 233c 5019 b93a
00000350: 96ac 7ebc 495c d7bc d644 e33c 548c c4bc
00000360: 4640 1dbd 74f3 2d3c 02bd 38bc 389a f3bc
00000370: e101 06bd 836c 3dbc 655a 953c 960e eebc
00000380: 36b6 a8bc cf51 29bd 3e2c e6bc af23 9239
00000390: 2cf6 303c d737 183c 5636 b6bc c8b6 af3c
000003a0: e5b8 8fbc 4d33 5b3b 62e1 34bd e4f7 a4bc
000003b0: d169 963b 51fe 12bd de84 b5bc 5abf b73c
000003c0: 8e86 0b3c abf3 8f3c 0f11 e4bc b9a7 a4bb
000003d0: 6f35 77bc d67c 45bd 7f27 4fbd b6b2 e43c
000003e0: dc1c de3c d8ce 29bd fbbd 09bc 5316 ca3a
000003f0: a518 1cbd 06ea 97bc c650 9cbc ac82 08bd
-0.0041377493 -0.043298762 -0.046952907 0.026032304 0.007554981 0.027032098 0.0023188002 0.0071545136
-0.031252656 -0.034846425 0.022826817 0.024583891 0.010507536 0.0057820166 0.016298624 -0.03331479
-0.010444981 -0.01293833 -0.0058935387 0.017245715 -0.002976888 0.006054487 -0.041477207 -0.014959658
0.010386611 0.0012074648 -0.038676694 -0.03574448 -0.026257334 -0.047598075 -0.022122322 -0.013494174
0.01724253 -0.012156773 0.015495008 -0.039506346 -0.026491411 -0.040131915 -0.047276475 0.0028100642
-0.042214934 -0.02624761 0.0128054 -0.020581454 0.0024007398 0.027900502 0.018515546 -0.00049475767
-0.028824547 0.020224562 0.026630655 -0.0011087795 -0.02064934 -0.028508047 -0.038627163 -0.011255453
0.018188382 0.023565594 -0.035568047 0.012701052 0.027200188 0.0021513822 -0.012884434 -0.046328697
0.011225141 0.01209354 -0.012491576 -0.04778285 0.023705935 -0.038060777 -0.02152147 0.015380051
-0.038773462 -0.003481564 -0.017853845 -0.01687511 0.0027119315 0.021953061 -0.030874437 0.03073558
0.019216696 0.029517706 0.030205615 -0.00556159 0.028985016 -0.016495073 0.014137888 -0.047284886
-0.016876347 0.024797257 0.02860683 -0.035253227 -0.03732562 -0.047262892 0.029682042 -0.016806372
0.027283853 0.02354983 -0.013228823 0.013362307 -0.029756926 -0.02524959 0.014387601 -0.00016418657
-0.032055423 0.029246042 -0.020079942 -0.03001333 0.021096166 0.012719194 -0.014118662 0.02424452
0.020200817 0.016972445 -0.013584385 0.019641055 -0.05078717 -0.024411898 0.01654079 0.0185051
-0.044507153 0.014686921 -0.036623668 0.022447838 -0.0055078547 -0.048180964 -0.042464703 -0.010572139
-0.012862501 -0.01825166 -0.014133953 0.0135742165 0.009923099 -0.030345248 -0.04603099 0.0028359317
-0.025658775 -0.031259928 0.017032592 -0.016287489 0.026800387 -0.021441385 0.028928973 -0.04247234
0.02715914 -0.027606605 -0.0009264724 0.0010163162 -0.023512488 -0.025825754 -0.042728744 -0.036712702
-0.019756505 -0.034836784 0.026636828 -0.0059621236 -0.025585756 -0.029489541 0.0035185057 -0.023435237
0.0023481206 -0.039224263 -0.005209388 0.0003012295 0.012721936 0.0106852455 -0.026571602 0.012163429
-0.031808663 -0.018154403 0.012276794 -0.029824562 -0.023473898 -0.00957204 0.025390932 0.016220083
0.029458582 -0.0009608641 0.025776017 -0.028460236 -0.045367908 -0.0027605128 0.00986173 -0.02563577
-0.03529171 0.020441435 0.03054061 0.029418765 -0.039339177 9.1237554e-05 0.02945543 -0.0070138173
0.0040687555 0.009200109 0.027055925 -0.013343989 0.0007929724 -0.0028562266 -0.019751415 -0.043471962
-0.008553946 0.00415171 -0.022804277 -0.0034017363 -0.004857115 -0.015756577 -0.04539043 -0.043313038
-0.043270867 0.0064157154 0.010005203 0.0014121924 -0.015544077 -0.026289122 0.027742784 -0.023992695
-0.038391374 0.010617126 -0.011275532 -0.029736623 -0.032716636 -0.011561516 0.01823158 -0.02905969
-0.020594697 -0.041337784 -0.028097268 0.00027873876 0.010800879 0.009290657 -0.022242706 0.021449462
-0.01754422 0.0033447326 -0.044160254 -0.020137735 0.004590251 -0.035887066 -0.022158083 0.02243011
0.008515967 0.017572245 -0.027840165 -0.005024877 -0.015088423 -0.048214756 -0.050574776 0.027917247
0.02711337 -0.041457027 -0.008407111 0.001541803 -0.03810944 -0.018544208 -0.019081485 -0.033327743

convs.0.bias f4 [32]
00000000: 08aa 3bbc 3942 0b3d 0058 49bd 1a94 f6bc
00000010: 7caf d33c a0c4 893a 0a8e 453d 3e6f a33c
00000020: 521c 873c 3e45 9bbb a8eb 963c d02e 733b
00000030: 8c0e 9139 fb31 893c 6075 d03c 19a1 513b
00000040: f711 d7bc a956 863c 9e42 28bd 9ed4 3cbc
00000050: 0456 253d 66c9 e03c 746c 0f3d 26d0 3abd
00000060: 03d2 26bd a220 293c ca7b edbc 060e 98bc
00000070: f106 b73c 4852 0dbd d3cc ee3c c5a4 c53c
-0.011454113 0.0339987 -0.04915619 -0.030099917 0.025840513 0.0010510869 0.048231162 0.019950505
0.016492996 -0.004738479 0.018422917 0.003710676 0.00027667393 0.016747465 0.025446594 0.003198689
-0.026253683 0.016398745 -0.041079156 -0.011525301 0.040365234 0.027439784 0.03501554 -0.045608662
-0.040727627 0.010322722 -0.028989691 -0.018561374 0.022342177 -0.034502298 0.029150402 0.02412642

convs.1.weight f4 [32, 2, 2, 300]
00000000: fbe2 8b3c a958 1cbc 024b 88bc f1cc 923c
00000010: f480 793c 97ef d8bc eaad 2f3c 31e9 96bc
00000020: 9aca d03b 2234 393c 352e 16bd 194b 313c
00000030: 053f 0cbd 1850 e6bc 319f 6bbc 7126 9dbc
00000040: b8a4 bebc 2217 14bd 5897 ec3a efe0 333c
00000050: a41d 283c 440c b7bc f8b7 c1bb 6d28 6b3c
00000060: dbec c2bc 9837 6f3b 7d04 663b ec16 eebc
00000070: 705b 8cbc f62b a03c 6092 06bc c254 0fbd
00000080: d899 213c 5e3e 443c 54e3 86bc d540 13bd
00000090: abc4 ccbc f277 4c3c 7f6f 80bc 4dae 2a3c
000000a0: 36c2 133c c9ef 06bc 6e12 bab8 dae1 5ebc
000000b0: 0bc3 0abb 385b 89bc 95f0 093c fef2 35bc
000000c0: 083e 67bc 4aec 07bd 73cf a7bb 9689 7dbb
000000d0: a5a7 debc a46a 76bc cdce 14bd 5720 563b
000000e0: 8cfc 85ba 0357 903c 18c3 04bd b1ac 193b
000000f0: 9f61 91bc 6560 8bba 42bb c2bc f210 cdbc
00000100: 09dc ebbc 7a1d 70bc 1a95 02bd 19ff c4bc
00000110: 7073 9b3b 9206 703c 1663 b1bc 567c a13a
00000120: 36c5 06bd e2e8 0dbb 9944 c43a 9f3c 013c
00000130: b211 0ebc a2d2 e2bc 111f 923c 7d45 323c
00000140: 2e41 d3bc 7bae 38b9 81cc 5c3c 39ad 9bbc
00000150: 338e 80bc 6c20 c9bc 8326 e2bb cf8b 903b
00000160: b678 80bc db72 343c bef6 8b3c eeec 533b
00000170: 8d35 13bd 13e4 06bd 7105 ca3b a4a0 39bc
00000180: 28c6 0abd 15dc 883c 91a4 bdbc 8b89 9a3c
00000190: 86fa d3bc 16fb 02bc 1d76 b7bc 2a56 e0bb
000001a0: 6dca dabc 815e aebb 909b 78bb 58f0 613c
000001b0: d3a3 103b f04c 9a3b 7c8e 703c fd81 e3ba
000001c0: 2fae 5fbc 7612 833c 4f47 3bbb 5ec2 41bb
000001d0: 0f2b 213c 4073 04bd af50 cfbc 6cea 04bd
000001e0: 9fe2 e6bc 55be 04bd fea7 473c baec cebb
000001f0: 0638 f3ba 2e63 dcbc 595c 7bbc d080 933c
00000200: 2c70 d4bc b8d2 933c 5e1f 8bba 859e a8bc
00000210: 7ed7 08bd 53d0 06bc 5e2f 82bb 2a53 9b3c
00000220: c1c6 5c3c f179 9a3c a476 6f3c 78f2 b1bc
00000230: 1e35 72bb 6f53 a3bc 6b5a 16bc ee97 14bd
00000240: f46a 513c 98d2 c6bc 1814 efbc ca27 9eba
00000250: c1ca eebc 7303 b3bc da74 4838 1a98 863c
00000260: 6643 babc 2d4b 793b fea3 8fbc 35e5 8fbc
00000270: cf9a cc3a e7a4 a9bc 8a9e 20bc 91e4 84bc
00000280: f90e 86bc e0a0 7bbc 1606 1ebd e67f ebbb
00000290: 4d01 a3bc c475 bc3b 9ba1 3fbc 075e dfbc
000002a0: 10f2 6b3c 3f41 64bc 0e41 e1bc 22c6 e0bc
000002b0: 5625 c13b 4aab c8bc 2d94 b7bc aa22 9cbc
000002c0: cfc6 d6bc d1ef 8cbc c4e9 5cbb 5ee6 b4bc
000002d0: c4de 32bc 8ac5 ceba dc3b 42b9 306c d8bc
000002e0: a5ed 873b 93d6 febc 5cee 883c e58b aaba
000002f0: 641e 45bc 00b3 f63b 026a 53bb 89ee 6a3c
00000300: c7f7 f8bc 7c84 293c 2476 d83b 15f3 563c
00000310: 04b8 1cbd 611f 9aba 0fa0 69bb 6d68 ebbc
00000320: b250 283c 2d85 d2bb f452 a1bc d60f a43c
00000330: 4458 20b9 ca21 063c 9bc6 eabc 6c7c 53bb
00000340: c9ba 8fbb 2b45 263c c8f2 82bc c676 273b
00000350: 3253 a1bc f009 adbc 8178 aa3b 002f a3bc
00000360: a0bd 91bc 33ab 273b 34be 5ebc 2d34 7f3c
00000370: 0497 6e3b 668b 18bd 8168 32bc be83 a6bc
00000380: 0bbf 9abc b411 14bd 1e0c 02bd ea38 ccbc
00000390: ca49 18bc 9523 18bd 2335 923c 34b2 e4bc
000003a0: ddd3 49bb 636b 1cbc 6403 47bc c482 e8bc
000003b0: 736a 663c 45fb 0dbd acff 5b3c 9a23 c83b
000003c0: 3b68 d1bb 8cf8 fabc bd15 0bbd c9f0 923c
000003d0: 0dda 233c d8a2 983c ed89 9abc 83a5 283c
000003e0: e46c 8a3c a60a 883c b75a 86bc 829d 5d3b
000003f0: 4b4b b6bb a0f9 fabb d8a9 eebc aef9 1c3b
0.017076006 -0.009542623 -0.016637329 0.01791999 0.015228499 -0.026481433 0.010722617 -0.018421741
0.0063718082 0.011303933 -0.03666516 0.010821127 -0.034239788 -0.028114364 -0.014381216 -0.01918337
-0.023271903 -0.036154874 0.0018050475 0.010978921 0.010260973 -0.022344716 -0.0059118234 0.0143529
-0.023794582 0.0036501642 0.003509789 -0.029063664 -0.017133445 0.019552212 -0.008213609 -0.03499294
0.009863339 0.01197776 -0.01646582 -0.0359505 -0.024996122 0.012479769 -0.015678165 0.010417533
0.009018471 -0.00823588 -8.872604e-05 -0.013603652 -0.0021173384 -0.01676713 0.008419176 -0.011105297
-0.0141139105 -0.033184327 -0.0051211654 -0.0038686744 -0.027179549 -0.015040074 -0.036330033 0.0032673085
-0.001022236 0.017619615 -0.03241262 0.002344888 -0.017746745 -0.0010633586 -0.023770932 -0.025032494
-0.028791444 -0.014655465 -0.031880476 -0.024047421 0.004743986 0.014650004 -0.021653693 0.001232038
-0.03290292 -0.0021653702 0.0014974057 0.007887988 -0.008671211 -0.027688328 0.01783708 0.010880825
-0.025787916 -0.00017612606 0.013476492 -0.019003497 -0.015692806 -0.024551593 -0.0069015636 0.0044111977
-0.01568256 0.011013712 0.01708543 0.0032337266 -0.035939742 -0.032932352 0.0061651994 -0.011329804
-0.033880383 0.016706506 -0.02314976 0.018864414 -0.025876295 -0.007994434 -0.022395188 -0.006846209
-0.026707852 -0.0053213243 -0.003793452 0.013790213 0.0022070303 0.0047088787 0.014682408 -0.0017357465
-0.013652368 0.016000014 -0.0028576439 -0.0029565315 0.009836926 -0.032336473 -0.025307028 -0.032450125
-0.028184233 -0.032408077 0.012186049 -0.006314841 -0.0018556125 -0.026902761 -0.015341842 0.018005759
-0.025932394 0.018044814 -0.0010614207 -0.0205834 -0.033408634 -0.008228379 -0.0039729318 0.018960554
0.013475121 0.018856974 0.0146156885 -0.021722063 -0.003695793 -0.019937245 -0.009176831 -0.036277704
0.012781847 -0.02427034 -0.029184386 -0.0012066301 -0.029149415 -0.02185223 4.7792542e-05 0.01642995
-0.022737216 0.0038039193 -0.017534252 -0.01756535 0.0015610101 -0.020708514 -0.009803424 -0.01622227
-0.016364561 -0.01535818 -0.038580023 -0.0071868775 -0.019898081 0.0057513434 -0.011696245 -0.027266515
0.014400974 -0.0139315715 -0.02749684 -0.027438227 0.0058943434 -0.02449574 -0.022409523 -0.019059498
-0.026217846 -0.017204197 -0.003370867 -0.022082504 -0.010917369 -0.0015775424 -0.00018523581 -0.026418775
0.0041482025 -0.031108176 0.016715221 -0.0013011663 -0.0120311715 0.0075286627 -0.003225923 0.014339098
-0.030391587 0.010346528 0.0066058803 0.013119479 -0.03826143 -0.0011758619 -0.003564838 -0.028736318
0.0102731455 -0.006424567 -0.019692875 0.020027082 -0.0001529167 0.008186767 -0.028659156 -0.0032270206
-0.00438628 0.010148327 -0.015984908 0.0025552972 -0.01969299 -0.021122903 0.0052023535 -0.019919872
-0.017790616 0.002558422 -0.013595153 0.0155764045 0.003640593 -0.037242316 -0.0108891735 -0.020326491
-0.018889925 -0.036149696 -0.031749837 -0.024929482 -0.009294936 -0.03714331 0.017847603 -0.027917005
-0.0030796446 -0.009547087 -0.0121468045 -0.028382666 0.014063465 -0.034663457 0.013427656 0.0061077597
-0.006390599 -0.030636095 -0.033956278 0.017937081 0.010000718 0.018632337 -0.018864596 0.010293367
0.016897626 0.01660664 -0.016400678 0.0033815806 -0.005563175 -0.007659152 -0.029133722 0.0023952532

convs.1.bias f4 [32]
00000000: f460 bcbc d266 8d3b 3870 333c e0b6 91bc
00000010: 0d01 17bd 756c 51bc 560f 0cbd 2840 f7bc
00000020: f472 04bd be48 07bc 6de1 84bb 5460 09bc
00000030: 2fff 07bd 8cde b73c 496d 0abc 4bb9 443c
00000040: 9ef0 1abc d033 273b f214 5e3c e7f6 ef3c
00000050: ddf2 2abc 2dba 7bbc 08ef 883c 4f70 503c
00000060: dc3a f63b 23a1 7bbc 04f6 dabc b384 533c
00000070: 54e8 09bd dc14 d9bc f777 f1b8 be2b cebc
-0.02299545 0.0043152357 0.010952048 -0.017787397 -0.036866236 -0.012782206 -0.034194313 -0.03018196
-0.03233619 -0.008257089 -0.004055193 -0.008384783 -0.033202346 0.022444986 -0.008448907 0.012007068
-0.009456782 0.002551306 0.013554798 0.029292537 -0.01043388 -0.015364212 0.016715541 0.012722089
0.007514341 -0.015358242 -0.026728638 0.012910056 -0.03366883 -0.026499204 -0.00011514121 -0.025167342

convs.2.weight f4 [32, 2, 3, 300]
00000000: 2de9 bcbc 2bae c0bb cdf2 b0bc f710 ee3b
00000010: 0721 0fba 14d4 c6bc 33a2 913b a73e 0f3c
00000020: 8f1c 353c 7146 afbc 4580 21bc 4594 79bc
00000030: 7928 1b3c e90f ffbc 2a3b ff3a c687 adbc
00000040: ef03 09bd afa6 9abb 460c 2ebc bfae 06bc
00000050: 84ae 6cbb fc03 96bc b6ad b7bb 1080 8fbc
00000060: b6f4 f3bc 1c27 6dbc 5cc7 473c 9ce6 02bd
00000070: c6cd ef3b 00c1 33bc 3a3f 373c 6f45 9c3b
00000080: 7913 cfbc a493 563c beff 4c3b 8aee 51bb
00000090: 17e0 88bb 5393 3fbc d064 d5bc 4f3d 3b3c
000000a0: 8c78 c0bc 9929 a1bc 2a68 a7bb c93e 263c
000000b0: 5fb9 113c ee0f 6bbc 9e3b d3bb 728d 58bb
000000c0: d054 21bc e215 f7bc 6277 b1bc 2c7e 3cbc
000000d0: d98c 2dbc 8fe4 183a a262 103c 9c64 b6bc
000000e0: f97a 9e39 cd1e ecbc c908 0fbc 3dd2 abbc
000000f0: 0c69 79ba ced9 c9bb eb2b 503c 5b75 d6bb
00000100: a1de 83bc a2fd 453c 50cc d93b fbdb cdbc
00000110: 60e6 28bb fac3 14bc 878c f4bc c87d 90bc
00000120: e0c0 f7bc d5f3 08bc 327d a43b 7006 08bd
00000130: 99eb 97bc 5f3a bbbc c33b 06b9 37d9 4ebc
00000140: bf8c 2d3c f086 07bd faae febc 5cfe 26bc
00000150: 802b e1bc 59bb 92bc 1179 db3a a219 5fbc
00000160: 3fda dfbc ce3a 70bc 0da1 e1bc 9cf2 d9bc
00000170: 36f8 1b3c 436c e3bc ca43 993b c1f4 c1b8
00000180: 16e5 963b d7e3 24bb b78c 8bbc 8f10 1ebc
00000190: f1b5 64bc 8a85 03bd 58ae 8bbc d328 2d3c
000001a0: 99b8 653b ab6b 50bb 5b00 fcbc 9715 87bc
000001b0: 1bed 003c c66a 99bc 3f34 41bb b6ae 413c
000001c0: e67b b7bc 6962 b13b 5ddd 433c 21e1 2d3c
000001d0: 68b8 65bc 246d 02bd 90bd c8bc ea8d a43b
000001e0: 2a62 87bc 98bd e6bc d3bf 403c 2c76 a6bc
000001f0: f044 f2bc de69 56bb c793 a7bc 5ce7 07bd
00000200: 466c a73b 6d0b 113c dccc 2c3c 0fd0 09bc
00000210: f2c2 1cbc a5cb 38bc f96f 3abc 3e97 143c
00000220: 9d97 8ebc 1bd2 edbc 6a17 40bb f33d 83bc
00000230: 22a9 bebc a504 cabb beab 30bc 2a54 ed3b
00000240: 79d6 babb 90bb 2dbc 6f24 cdbc 1d0c dc3b
00000250: 6aad 16bc 056f fc3a b5a1 dcbb e39c d4bc
00000260: 4e26 5a3c 424e 13bc 3781 413c ccaa 04bd
00000270: 419f 03bd e2da d5bc 03d4 3e3c 2660 5abc
00000280: 14fd c9bc f263 9a3b ef1e 22bc 1334 ae39
00000290: 19b6 073c c654 aebc b6f1 87bc 7015 b0bc
000002a0: e4d9 fcba a000 593b cb4b 05bc 8d45 d9bc
000002b0: e1ba b6bc 0e97 363b f093 163c 2db8 943b
000002c0: 0a4d 00bd be07 f2b9 ef11 ae3b 6535 cdbc
000002d0: 326e 1b3b f922 00bd 84bc 03bc 63ac 69bc
000002e0: c59a 50bc 63c0 163b 4973 5c3c db98 9bbc
000002f0: 3083 afba 48b2 65bc 4316 3fbc 391e abbc
00000300: 99c6 edbb 6022 dcbc 6f52 fcbb 36e6 08bb
00000310: c695 b2bc b8ae 9ebc b440 eabb cc18 c0bc
00000320: bbeb 3c3b ff24 83ba 1474 d8bb de4e 8ebc
00000330: d227 bcbc fbde fcbc d0a4 a9bc 7777 07bd
00000340: f2f5 19bc ec8f 263c dd9f 10bc 123c 15bc
00000350: 76a3 14bc 8bce 08bb f89d ecbc 3b88 01bd
00000360: 9301 8abc 7919 c6bc 498e 4b3c f70b 113c
00000370: b627 eebc f91f 8ab8 00c1 3a3b eb2b f9bc
00000380: 0793 81bc 4b9b b2b9 f004 3b3c e838 0dbc
00000390: 287c 533c fa8f c8bc f27a 153c c344 25bc
000003a0: 03d0 04bd 39de efbc 5005 da3b 5d4c 023c
000003b0: 9539 a2bb dfe4 8cbc c4ee 043c a461 bebc
000003c0: 474b 073c 5369 8fbc 7633 20bc db56 8bbc
000003d0: b0f7 223c 1aa4 edbb 00f4 213c 0d78 d73b
000003e0: b013 5a3a 437b ae3b 38d5 3e3c e7ad 2c3c
000003f0: 2120 1abb 83e8 d63b 3913 3c3c a1ed 02bd
-0.023060406 -0.0058801374 -0.021600151 0.007265206 -0.00054599385 -0.024271049 0.0044443845 0.008742965
0.011054172 -0.021395894 -0.009857242 -0.015233104 0.009470099 -0.031135516 0.0019472588 -0.021182906
-0.033451017 -0.0047195773 -0.010623043 -0.008220374 -0.0036114762 -0.018312447 -0.0056054248 -0.01751712
-0.029779773 -0.014474656 0.012193527 -0.031958207 0.0073182313 -0.010971308 0.011184508 0.0047690193
-0.02527784 0.013096724 0.0031280364 -0.003203305 -0.004177104 -0.01169284 -0.026049048 0.011428191
-0.023494981 -0.019673156 -0.005108853 0.010146805 0.008894294 -0.01434706 -0.006446316 -0.0033043292
-0.009846881 -0.030161802 -0.021663371 -0.011504691 -0.010592663 0.0005832398 0.008812578 -0.022264771
0.0003022773 -0.02882328 -0.008730122 -0.020974273 -0.00095142494 -0.0061599975 0.012705783 -0.0065447516
-0.016097369 0.012084397 0.0066466704 -0.025129309 -0.002577208 -0.009079928 -0.029852165 -0.017638102
-0.030243337 -0.008358915 0.0050198073 -0.033209264 -0.018544959 -0.022854982 -0.00012801499 -0.01262503
0.0105926385 -0.03308767 -0.031089295 -0.01019248 -0.027486563 -0.0179116 0.0016744455 -0.013616951
-0.027325748 -0.014662458 -0.027542615 -0.026604943 0.009519627 -0.027761584 0.0046772705 -9.248546e-05
0.004604946 -0.0025160217 -0.017034872 -0.009647503 -0.013959394 -0.032109775 -0.017050907 0.010568815
0.0035052656 -0.0031802456 -0.030761888 -0.016489787 0.00786903 -0.018727671 -0.0029480604 0.0118214395
-0.022397947 0.0054133427 0.011954633 0.010612757 -0.014021017 -0.031842366 -0.024504453 0.0050218003
-0.0165263 -0.028166577 0.011764484 -0.02032002 -0.029573888 -0.003271691 -0.020456208 -0.033179626
0.0051093427 0.008852822 0.010546889 -0.008411421 -0.009567963 -0.011279021 -0.011379235 0.009069262
-0.01740628 -0.02903085 -0.002931083 -0.01602075 -0.023274008 -0.0061651045 -0.010783134 0.007242699
-0.0057018367 -0.0106038 -0.025041787 0.006715311 -0.009196619 0.0019259161 -0.006733144 -0.025953716
0.013314797 -0.008990826 0.011810592 -0.032389447 -0.0321343 -0.026105348 0.011647227 -0.013328588
-0.02465681 0.0047116214 -0.00989507 0.00033226665 0.008283162 -0.021280658 -0.016594749 -0.021494597
-0.0019291011 0.0033111945 -0.008135746 -0.026522422 -0.022305908 0.0027861032 0.0091905445 0.004538557
-0.03132347 -0.00046163605 0.0053121964 -0.025049875 0.0023716805 -0.031283353 -0.008040551 -0.014262292
-0.012732212 0.0023002855 0.0134552205 -0.018993786 -0.0013390537 -0.014019556 -0.011663022 -0.020888435
-0.0072563407 -0.02687186 -0.0077002565 -0.002088917 -0.021799933 -0.019370422 -0.0071488265 -0.023449324
0.002882703 -0.0010005533 -0.0066056345 -0.017371591 -0.022968207 -0.030868044 -0.020708472 -0.033072915
-0.009397017 0.01016615 -0.008827177 -0.00910856 -0.009072175 -0.0020875062 -0.02888392 -0.03162406
-0.016846454 -0.024182068 0.01242406 0.00885295 -0.02907167 -6.586308e-05 0.0028496385 -0.03041645
-0.015817178 -0.00034066508 0.011414751 -0.008619525 0.012908019 -0.024482716 0.009123551 -0.010087195
-0.032424938 -0.029280769 0.0066534653 0.007952777 -0.004950712 -0.017198978 0.008113567 -0.023239918
0.008257694 -0.017506277 -0.009777894 -0.01700919 0.009946749 -0.0072522284 0.009884834 0.0065755905
0.00083189737 0.0053247525 0.011647515 0.010539508 -0.0023517685 0.0065584793 0.011479192 -0.0319649

convs.2.bias f4 [32]
00000000: 992e 7fbc 104b 073c 3bef bbbb f755 1d39
00000010: 64b0 f8bc ccb4 5abc abd6 06bd 2ea5 a33c
00000020: d2c4 f2bb c4fa c93b 93c4 353b 3baf e93b
00000030: 9f69 823c d3eb 183c 21f7 1ebc d700 27bc
00000040: 7db0 a1b9 3cdd 15bc 6ec9 25ba 983d c6bb
00000050: cd84 073d e329 ebbc 46dc d63c 3fa8 cdbc
00000060: d7ee be3a 824c a5bc 7a9d 973c e510 e53b
00000070: f2d7 2ebc e085 ab3c a3af b3bc 115e 98bc
-0.015575075 0.008257642 -0.0057353056 0.00015004711 -0.030357547 -0.013348769 -0.032919567 0.019976225
-0.0074087167 0.006163927 0.0027735576 0.007131485 0.015919505 0.009333569 -0.009702475 -0.010193071
-0.00030839807 -0.009146985 -0.0006324266 -0.006049823 0.033085633 -0.028706497 0.026228081 -0.02510464
0.001456703 -0.020178083 0.018507708 0.0069905394 -0.010671603 0.02093786 -0.021934336 -0.018599542

convs.3.weight f4 [32, 2, 5, 300]
00000000: a820 6e3b 9ecb 773c 406d 5fbc 1e1a 743c
00000010: aa22 e9bb 9267 043c 8aa3 3fbc 10c8 113c
00000020: 2ed9 7f3c ac7f 233c 3aeb 3e3c 0ee4 eebb
00000030: e84e 81bc a0c4 0b3a d813 223c 88bb adbb
00000040: d4dd 083c dc85 d93b 0e55 87bb 8097 5b39
00000050: e656 553c 26a8 eabb 2e00 7b3c e927 863c
00000060: 697e 14bc f932 953c 50a1 183b f022 4fbc
00000070: 50f6 fb3b 8056 4139 b9d3 52bc 98af 0c3b
00000080: 1a7e 003c a8d7 9fbb b002 e3ba 4c81 eabb
00000090: 281c dd3b e84d 003b 5075 203c 5e9e f9bb
000000a0: 5da0 813c 2092 4fbc 32ac 4e3c 2bb6 26bc
000000b0: a04e 303b 2cbc 413c 6608 2e3c 48a3 c03b
000000c0: c454 67bc 80cf ad3a 580a 913b 6027 ccbb
000000d0: 0ac8 90bc 8b32 8e3c f617 663c d1cc 19bc
000000e0: 046d 5abc 24c7 20bc 10c9 7dbb 487e d33b
000000f0: 00ee 393a 70d7 13bb cce0 b73b e372 8e3c
00000100: 4614 193c e872 103c 2841 333b ece8 d13b
00000110: c6c9 6f3c 3e8c 41bc 5463 b73b fab7 37bc
00000120: d451 41bc 283b b53b 58e9 0abc 10b4 4c3b
00000130: 5877 6fbc 94ab 1ebc 50e1 aa3a 441b 163c
00000140: 7762 45bc 482f 79bb 9079 fb3b f065 4c3b
00000150: 5a55 8ebb d4d3 083c 741c 82bc 0e2b 56bc
00000160: 370c 29bc 9818 ebbb 6c6f 19bc 580e a7bb
00000170: 2cc1 4b3c 48d4 51bb 5232 5e3c e336 843c
00000180: cc0f 523c 1026 cfbb 9258 2bbc 527a 1ebc
00000190: de0b 7d3c 27bf 8dbc ba8b f9bb 4a2e 493c
000001a0: 5c15 c33b 52fe 003c 5177 95bc 3262 02bc
000001b0: b026 ffba a86d ed3b 0014 e139 54a3 463c
000001c0: 8040 e239 f6f0 d0bb 445c f93b 8038 83bc
000001d0: 7878 203b aa15 12bc fb85 8f3c e466 a93b
000001e0: de48 543c 6892 30bb e494 4fbc 8f65 913c
000001f0: 344c 32bb ffa0 2ebc 60ce 90bc 60da 443b
00000200: da10 183c f025 0ebc 6cee 533c da31 313c
00000210: 1d55 82bc 7897 cd3b 6447 c63b 80ae f93a
00000220: 30b2 e63b b82a 8a3b 0053 af3a 1436 a83b
00000230: 26e5 93bc 0615 ecbb 9c2b 40bc 340e 2fbc
00000240: 381d 79bc 7862 64bb a07a 433c 67a1 843c
00000250: daae 0e3c d01a 8d3a 9403 87bb 0629 043c
00000260: 16a6 71bc a06e e1ba f6bf 4d3c 9892 05bc
00000270: c4c4 393c bc17 cabb d048 ec3b 7493 a6bb
00000280: d082 b33b 20d4 923a c419 0a3c 1054 823b
00000290: 78b4 c2bb f097 3e3b 579c 2cbc 0261 0abc
000002a0: 82e2 703c c003 1a3c c036 25bb 59ea 85bc
000002b0: 2092 cf3a 40a4 e6b9 88a3 683b b63f 93bb
000002c0: c4ea f83b 3056 faba 7808 653b 0c5e 4f3c
000002d0: 55f4 943c d68d 47bc 1ce3 66bb 8c0e 153c
000002e0: 6055 643b 9c6f 0e3c 6c82 44bb 8070 fc3b
000002f0: 1fa3 01bc 9070 85bb be83 7d3c 9765 933c
00000300: 46fa 61bc e81a 603b d282 7f3c 0a6b 783c
00000310: 60a9 373c f403 52bc ed47 48bc 9e05 2ebc
00000320: b68a 2c3c 9c3e 35bc 9880 f83b 48b1 9d3b
00000330: 9452 a33b dad0 7ebc fd45 7ebc 2811 57bc
00000340: 02d5 2dbc eccf b63b 6c95 8bbb b730 853c
00000350: a5c7 923c c076 203c 203d da3b a0f4 18ba
00000360: 5874 0d3b 0041 e5ba 02c8 04bc 2095 7dba
00000370: 706f 29bc b8a3 8fbc ce99 4cbc 4e93 65bc
00000380: 001b c6bb b818 e93b a4ae 353c da5c 33bc
00000390: ef60 903c ab8f 36bc 38d0 4a3b 00a2 69ba
000003a0: 463f 94bb f1d9 0dbc 12b0 89bc 3e31 efbb
000003b0: 720a 84bc 804f 2a3a f4e5 59bc 5ec5 503c
000003c0: 1f68 0ebc 785d ca3b 8676 bcbb e014 283b
000003d0: d662 5a3c 80f5 0639 0e18 6ebc 17b3 853c
000003e0: 7034 70bc e8aa e0bb 6a7b 023c e874 66bb
000003f0: f6d7 c2bb c0a0 d739 1410 0dbc 8c6c e63b
0.0036335383 0.01512423 -0.013636887 0.014898805 -0.007114728 0.008081334 -0.011696706 0.008897796
0.0156157445 0.00997917 0.011652762 -0.00729037 -0.015784696 0.00053317286 0.009892426 -0.0053018965
0.008353669 0.0066382717 -0.0041300124 0.00020941906 0.0130212065 -0.007161158 0.015319867 0.016376453
-0.009063342 0.018212782 0.002328951 -0.012642607 0.007689275 0.00018438138 -0.012867861 0.0021466967
0.007842565 -0.004878003 -0.0017319527 -0.0071565267 0.0067477413 0.0019577686 0.0097935945 -0.007617756
0.015823537 -0.012669116 0.012614297 -0.010175268 0.0026902333 0.011824649 0.0106221195 0.0058788396
-0.014119331 0.0013260692 0.004426282 -0.00623028 -0.017673511 0.017358085 0.014043799 -0.009387211
-0.013331655 -0.009813104 -0.003872458 0.006454263 0.00070926547 -0.002255883 0.0056115147 0.017388767
0.0093432125 0.008816458 0.0027352069 0.0064059403 0.014635509 -0.0118132215 0.0055965576 -0.011213297
-0.0117992945 0.0055307336 -0.008478485 0.0031235255 -0.014615856 -0.009684462 0.0013037119 0.009161774
-0.012047402 -0.0038022567 0.0076744035 0.003118869 -0.004343671 0.008351285 -0.015882708 -0.0130717885
-0.010317854 -0.0071745627 -0.009364944 -0.0050981455 0.0124361925 -0.0032017399 0.013561802 0.016139453
0.012821149 -0.006321676 -0.0104581285 -0.009672718 0.015444724 -0.017303063 -0.0076155337 0.012279103
0.005953474 0.007873135 -0.018245371 -0.007957982 -0.0019466486 0.007245738 0.00042930245 0.012123901
0.00043154135 -0.006376381 0.007609876 -0.016018152 0.0024485867 -0.008916298 0.017519942 0.005169736
0.012956826 -0.0026942734 -0.012669776 0.017748622 -0.0027206065 -0.010658502 -0.017676532 0.0030037388
0.0092813615 -0.008676037 0.012935262 0.010815108 -0.015909726 0.00627416 0.006050991 0.0019049197
0.0070402846 0.0042165183 0.0013376176 0.0051333997 -0.018053602 -0.0072046546 -0.011729147 -0.010684539
-0.01520472 -0.003484873 0.011931092 0.016190244 0.00870868 0.0010765437 -0.0041202996 0.008066421
-0.014749071 -0.0017199107 0.012557974 -0.008152626 0.0113384165 -0.00616738 0.0072108284 -0.0050834958
0.0054782405 0.0011202134 0.008428995 0.003977306 -0.0059419237 0.002908226 -0.010535321 -0.00844598
0.014702441 0.009400308 -0.0025209635 -0.016347097 0.0015836395 -0.00043991394 0.0035497863 -0.004493679
0.0075963456 -0.0019099172 0.0034947675 0.0126567 0.018182913 -0.012179812 -0.0035230583 0.0090977065
0.0034840927 0.008693602 -0.0029984964 0.0077038407 -0.007912426 -0.0040722564 0.015473304 0.017992778
-0.01379258 0.0034195725 0.015595155 0.015162239 0.011209816 -0.012818325 -0.01222418 -0.010621456
0.010531118 -0.0110622905 0.007583689 0.0048123933 0.0049842093 -0.015552724 -0.015519616 -0.013126649
-0.010609867 0.0055789854 -0.004259756 0.01625858 0.017917464 0.009793937 0.0066601187 -0.0005834792
0.002158424 -0.0017490685 -0.008104326 -0.00096734054 -0.01034151 -0.017534122 -0.012487842 -0.014012171
-0.006045699 0.0071135424 0.011089001 -0.0109474305 0.017624347 -0.011142652 0.0030946862 -0.00089123845
-0.0045241443 -0.008657918 -0.01680759 -0.0072995713 -0.016118262 0.0006496832 -0.013299454 0.0127423685
-0.008691817 0.006175693 -0.005751434 0.0025647208 0.013329228 0.00012870692 -0.014532102 0.016320748
-0.01466094 -0.006856311 0.0079639945 -0.0035164896 -0.0059461547 0.00041127764 -0.00860979 0.0070319828

convs.3.bias f4 [32]
00000000: efd3 acbb 778b e2bc 31d9 7f3b bc2a 103b
00000010: 40fc 89bc 1f33 e03c fd2a 133c bf37 ea3a
00000020: 6d3f b03c a413 b93c 0211 e2bc 674e c7bc
00000030: f597 99bb 81bb 21bc 557f 2a3c 8f26 cebb
00000040: ab71 aebc 6a98 033c cab2 dabb e492 9ebc
00000050: 9242 7bbc 36a1 5ebc eba5 073b 1cb3 d53b
00000060: ecaf 91bb 3eb7 d6ba ce65 b63c f4d7 6e3c
00000070: 51a6 c7ba 633b dd3c d2f3 e4bb 1408 e2bc
-0.005274288 -0.027654393 0.0039039368 0.0021998128 -0.016843915 0.027368126 0.008982417 0.0017869397
0.021514619 0.022592373 -0.027596 -0.024329377 -0.004687304 -0.009871365 0.010406335 -0.0062912176
-0.021294435 0.008031944 -0.0066741453 -0.019357152 -0.015335696 -0.01358824 0.002069826 0.0065215956
-0.0044460203 -0.0016381515 0.022265341 0.014577854 -0.0015232061 0.027005857 -0.0069870735 -0.027591743

fc.weight f4 [6, 128]
00000000: bf07 c5bc 5a0d b2bd e1f0 013d 2db6 f43c
00000010: c44b b3bd b418 c53c 498c 25bd cf59 603d
00000020: e52b 3d3d bd92 61bc 8581 393d d129 433d
00000030: 12f4 40bd 8a79 c0bb fc2a 163d fb34 36bc
00000040: 5b36 57bd 0592 63bd bfd1 60bc c005 f0bb
00000050: 7613 38bd 5d28 8d3d fe39 0d3d 856b 913d
00000060: 14c0 883d a533 6dbc 6db0 25bd 041e c13d
00000070: a0ff bf3d 6bdd bcbb 2a71 debc 1b86 00bd
00000080: a3d1 053d 8651 bbbd d670 e03c c52e aa3b
00000090: ff18 e2bc 1545 c0bb e264 ae3d 90ab 7cbd
000000a0: d87f 54bd 8fa2 803d 8bab 653b 14d5 c5bc
000000b0: bd77 be3d 349f 933c dc97 5e3d 0a30 133d
000000c0: 3239 c53d 58ad ccbc 1e34 8d3c c9a8 c5bc
000000d0: 2824 60bc aa68 1a3c 9a06 a33c e75d 843d
000000e0: 39c5 8ebd 923c 813b a616 153d 45cd 93bd
000000f0: 1840 5fbd e3aa 6f3d 426f 513d 6064 333c
00000100: 1403 663c 6b63 fa3c f54d b1bd e43c 1abd
00000110: ce7d 62bd 8115 973d 0125 873b 49c9 9dbd
00000120: 574a 793d 94fc 063d ad6f 9c3d eff2 b6bc
00000130: cf50 b1bd c4eb f2bc 0ecd 393d 057f cf3b
00000140: 3731 5cbd 7ea6 1abd b264 bcbd 963e 933d
00000150: 2f78 c13d 3bda a6bb 18c5 8bbd 807c 39bc
00000160: 29aa 0c3d efe8 e53c e4f2 f73b b0b4 10bd
00000170: 4484 503b 4022 1ebd 5770 35bb fc91 8cbd
00000180: 81b8 1b3d 26d8 c0bc 8bc2 753d da99 1d39
00000190: ce3a c9bd 204e 4e3d b8a7 d53c 9464 98bd
000001a0: 6c73 3a3d 6627 0abb b68c c13d 6973 943d
000001b0: 7f7c e33c 45ec 59bd 154e b1bc a4f0 9f3d
000001c0: 0f72 aa3c 2aed 31bd ea10 7bbd a0fb b93b
000001d0: 654b 4d3d 577d 8dbd 00c9 4ebd 444a c13c
000001e0: ac12 193d bb7c 793b a259 493d 523a b8bd
000001f0: 967a aa3b cd40 26bd ab4b 103d dafa c1bc
00000200: 5866 4e3d ac1b ff3c 363b 123d be02 18bd
00000210: d2c4 cfbc 40c8 54bc 2232 2a3d 9c18 34bc
00000220: 4bcd 67bd 28ac 88bd bb1f 983d b464 653d
00000230: 02c7 c73c 6905 673d fef5 783d a8f2 33bd
00000240: f56e 12bd b1b3 65bb 6825 9fbd 8265 323d
00000250: 0602 4bbd a426 013d b86f 15bd 5aca 13bb
00000260: 909d 58bc b437 6c3d dc05 a43a b779 6d3c
00000270: 99cc 39bc 20d5 9a3d 82d5 1dbd 7800 803c
00000280: 44ea cc3b d9bd af3d daaa b9b9 2090 9a3c
00000290: d3b0 4abc f49b 003d c246 f93c 2828 0a3d
000002a0: 8560 74bd 54b6 543d 0be4 9ebb 3224 7a3d
000002b0: 9a72 8e3d cbec 8a3d 5b8a 9fbd 14d3 153d
000002c0: b823 b3bd 4fc5 983d dc56 5dbd f18d 1e3d
000002d0: 8b96 b0bb 69e2 c33c 8788 c03d b987 91bd
000002e0: a613 9fbd 60b6 49bd b497 a13d 5918 e63c
000002f0: ef63 67bd da2a d8bc ffe4 0ebd f3fb b0bd
00000300: e1ae 803d d3bc 11bb 8da0 cfbc ee7b 04bd
00000310: 46a1 973d c662 7dbd 0400 1cbd dcb8 233c
00000320: 0d0d 3cbd 5ffd 0bbd 398f b33d c54a ba3d
00000330: 65cb 8a3d 5188 b33c f914 883d 9f10 c03d
00000340: 80ae 85bd 8abf 67bc 439f 88bc fd14 a3bb
00000350: 8d3c 913d 0618 1d3d 56fd 0a3d eb54 2c3d
00000360: a756 65bc 1d89 2b3c 8d3b 02bd 0027 b9bd
00000370: 2c8e e63b eabf 4bbd bfda c13d 4a3d 84bd
00000380: bfc6 aebb 9732 66bb 2550 ec3c 6778 1c3c
00000390: e549 1e3c f6fb 6c3d 0980 50bc 2709 05bd
000003a0: 9b41 73bd b5d4 6dbd a17d 96bd 2473 483c
000003b0: cc5c 243c 1182 933b b1b0 223d 2c83 5abb
000003c0: bc4e 9b3d 58ae 0f3d 9559 4f3d 02af 80bb
000003d0: 6bdb 7fbd 1670 93bc ab0b 04bd 921b 4e3d
000003e0: f07a bb3d 08c2 c13d 62aa b33d daa8 593c
000003f0: adb6 d23c 759b 46bd 8e4d 09bc c382 763c
-0.024051545 -0.08693953 0.03172386 0.029872024 -0.087546855 0.02405963 -0.04041699 0.05477315
0.04618444 -0.013767895 0.045289535 0.0476473 -0.047107764 -0.0058738636 0.036662087 -0.01112103
-0.05254207 -0.055559177 -0.013721882 -0.007324904 -0.044940434 0.06892464 0.034479134 0.07100586
0.06677261 -0.014477645 -0.040451456 0.09429553 0.093749285 -0.0057636998 -0.02715357 -0.031377893
0.03267063 -0.09146409 0.027397554 0.0051935636 -0.02759981 -0.00586761 0.085153356 -0.061687052
-0.051879734 0.062810056 0.0035044875 -0.024149455 0.09300182 0.01802025 0.054344043 0.035934485
0.0963005 -0.024985 0.017236765 -0.024128335 -0.013680495 0.009424368 0.019900609 0.06463223
-0.06971211 0.003943988 0.036398552 -0.072168864 -0.054504484 0.05851258 0.051131494 0.010949224
0.01403882 0.030564984 -0.08657447 -0.037655726 -0.055295758 0.073771484 0.0041242843 -0.07704408
0.06086191 0.03295572 0.07638488 -0.022332637 -0.08657991 -0.029653437 0.04536157 0.0063322806
-0.053757872 -0.037756436 -0.091988936 0.07189672 0.09446751 -0.005091933 -0.06824702 -0.011321187
0.034341965 0.028065173 0.0075667966 -0.035328567 0.0031817118 -0.038606882 -0.0027685368 -0.06863782
0.038017754 -0.023540568 0.059999984 0.00015030001 -0.09825669 0.050367475 0.026080951 -0.07441059
0.04552023 -0.0021080612 0.094506666 0.07248575 0.027769325 -0.05320384 -0.021643678 0.078095704
0.02080634 -0.043439068 -0.061295427 0.005675748 0.05012073 -0.06908672 -0.050484657 0.023594983
0.037371323 0.003806873 0.049157746 -0.08995499 0.0052026017 -0.040589143 0.035228413 -0.023679186
0.05039057 0.031141125 0.035701 -0.03711199 -0.025362406 -0.012987196 0.041551717 -0.010992195
-0.056592267 -0.06673461 0.07427927 0.05600424 0.024386887 0.056401644 0.06078147 -0.043932587
-0.035750348 -0.0035049731 -0.077708066 0.043553837 -0.049562477 0.03153099 -0.036483496 -0.002255103
-0.01322116 0.05767031 0.0012513953 0.014494351 -0.011340284 0.075601816 -0.038533695 0.015625224
0.0062535126 0.085811324 -0.00035413244 0.018867552 -0.01237126 0.03139873 0.030429248 0.033729702
-0.05966236 0.051931694 -0.004848962 0.061069675 0.06955452 0.06783446 -0.07790061 0.036578253
-0.08747047 0.07459509 -0.054037914 0.038709585 -0.00538904 0.023911672 0.094010405 -0.07105965
-0.077674195 -0.049246192 0.07890263 0.028087782 -0.05649179 -0.02638762 -0.034886356 -0.086418055
0.062833555 -0.0022237792 -0.025345111 -0.03234475 0.07403807 -0.061861776 -0.038085952 0.009992804
-0.045910884 -0.03417718 0.08767552 0.090962924 0.06777076 0.021915587 0.06644625 0.0937817
-0.06527424 -0.014144788 -0.016677504 -0.004976867 0.07091627 0.03835299 0.033933006 0.04207317
-0.01399771 0.010469702 -0.031795073 -0.09040642 0.007035991 -0.04974357 0.09465551 -0.064570025
-0.005333751 -0.0035125369 0.02884681 0.0095501905 0.0096611725 0.057857476 -0.012725838 -0.03247943
-0.059388738 -0.05806418 -0.073481806 0.012234483 0.01003189 0.004501589 0.039719287 -0.0033342345
0.07583377 0.035078377 0.05062254 -0.0039271126 -0.062465113 -0.017997783 -0.03223769 0.05031926
0.09154308 0.09460837 0.08772732 0.013284886 0.025721872 -0.0484881 -0.008380307 0.015045824

fc.bias f4 [6]
00000000: 1e0d aa3c 9dea 3abd 57a1 88bc 0a1b 54bd
00000010: 22f4 c0bc fb3b 843c
0.020758208 -0.0456339 -0.016678495 -0.0517836 -0.023553912 0.016141882
